…
TAG: default
TEST:
  CROP: true
THROUGHPUT_MODE: false
TRAIN:
  ACCUMULATION_STEPS: 0
  AUTO_RESUME: true
  BASE_LR: 0.001
  CLIP_GRAD: 5.0
  EPOCHS: 300
  LR_SCHEDULER:
    DECAY_EPOCHS: 30
    DECAY_RATE: 0.1
    NAME: cosine
  MIN_LR: 1.0e-05
  OPTIMIZER:
    BETAS:
    - 0.9
    - 0.999
    EPS: 1.0e-08
    MOMENTUM: 0.9
    NAME: adamw
  START_EPOCH: 0
  USE_CHECKPOINT: false
  WARMUP_EPOCHS: 20
  WARMUP_LR: 1.0e-06
  WEIGHT_DECAY: 0.05

[2022-03-23 19:21:23 small] (main.py 80): INFO Creating model:DFvT/small
[2022-03-23 19:21:24 small] (main.py 85): INFO DFvT(
  (patch_embed): PatchEmbed(
    (proj1): Conv2d(3, 48, kernel_size=(3, 3), stride=(2, 2), padding=(1, 1))
    (proj2): Conv2d(48, 96, kernel_size=(3, 3), stride=(2, 2), padding=(1, 1))
    (silu): SiLU(inplace=True)
    (norm): BatchNorm2d(96, eps=1e-05, momentum=0.1, affine=True, track_running_stats=True)
    (norm1): BatchNorm2d(48, eps=1e-05, momentum=0.1, affine=True, track_running_stats=True)
  )
  (pos_drop): Dropout(p=0.0, inplace=False)
  (layers): ModuleList(
    (0): BasicLayer(
      dim=96, input_resolution=(28, 28), depth=1
      (blocks): ModuleList(
        (0): TransformerBlock(
          dim=96, input_resolution=(28, 28), num_heads=3, window_size=7, shift_size=0, mlp_ratio=2.0
          (select): DANE(
            (fc_spatial): Sequential(
              (0): LayerNorm((96,), eps=1e-05, elementwise_affine=True)
              (1): Linear(in_features=96, out_features=1, bias=False)
            )
            (avg_pool): AdaptiveAvgPool1d(output_size=1)
            (fc_channel): Sequential(
              (0): Linear(in_features=96, out_features=6, bias=False)
              (1): SiLU(inplace=True)
              (2): LayerNorm((6,), eps=1e-05, elementwise_affine=True)
              (3): Linear(in_features=6, out_features=96, bias=False)
            )
            (sigmoid): Sigmoid()
          )
          (norm1): LayerNorm((96,), eps=1e-05, elementwise_affine=True)
          (attn): WindowAttention(
            dim=96, window_size=(7, 7), num_heads=3
            (qkv): Linear(in_features=96, out_features=288, bias=True)
            (attn_drop): Dropout(p=0.0, inplace=False)
            (proj): Linear(in_features=96, out_features=96, bias=True)
            (proj_drop): Dropout(p=0.0, inplace=False)
            (softmax): Softmax(dim=-1)
          )
          (drop_path): Identity()
          (norm2): LayerNorm((96,), eps=1e-05, elementwise_affine=True)
          (mlp): Mlp(
            (fc1): Linear(in_features=96, out_features=192, bias=True)
            (act): GELU()
            (fc2): Linear(in_features=192, out_features=96, bias=True)
            (drop): Dropout(p=0.0, inplace=False)
          )
        )
      )
      (downsample): PatchMerging(
        input_resolution=(28, 28), dim=96
        (reduction): Linear(in_features=96, out_features=192, bias=False)
        (norm): LayerNorm((96,), eps=1e-05, elementwise_affine=True)
      )
    )
    (1): BasicLayer(
      dim=192, input_resolution=(14, 14), depth=1
      (blocks): ModuleList(
        (0): TransformerBlock(
          dim=192, input_resolution=(14, 14), num_heads=6, window_size=7, shift_size=0, mlp_ratio=2.0
          (select): DANE(
            (fc_spatial): Sequential(
              (0): LayerNorm((192,), eps=1e-05, elementwise_affine=True)
              (1): Linear(in_features=192, out_features=1, bias=False)
            )
            (avg_pool): AdaptiveAvgPool1d(output_size=1)
            (fc_channel): Sequential(
              (0): Linear(in_features=192, out_features=12, bias=False)
              (1): SiLU(inplace=True)
              (2): LayerNorm((12,), eps=1e-05, elementwise_affine=True)
              (3): Linear(in_features=12, out_features=192, bias=False)
            )
            (sigmoid): Sigmoid()
          )
          (norm1): LayerNorm((192,), eps=1e-05, elementwise_affine=True)
          (attn): WindowAttention(
            dim=192, window_size=(7, 7), num_heads=6
            (qkv): Linear(in_features=192, out_features=576, bias=True)
            (attn_drop): Dropout(p=0.0, inplace=False)
            (proj): Linear(in_features=192, out_features=192, bias=True)
            (proj_drop): Dropout(p=0.0, inplace=False)
            (softmax): Softmax(dim=-1)
          )
          (drop_path): DropPath()
          (norm2): LayerNorm((192,), eps=1e-05, elementwise_affine=True)
          (mlp): Mlp(
            (fc1): Linear(in_features=192, out_features=384, bias=True)
            (act): GELU()
            (fc2): Linear(in_features=384, out_features=192, bias=True)
            (drop): Dropout(p=0.0, inplace=False)
          )
        )
      )
      (downsample): PatchMerging(
        input_resolution=(14, 14), dim=192
        (reduction): Linear(in_features=192, out_features=384, bias=False)
        (norm): LayerNorm((192,), eps=1e-05, elementwise_affine=True)
      )
    )
    (2): BasicLayer(
      dim=384, input_resolution=(7, 7), depth=2
      (blocks): ModuleList(
        (0): TransformerBlock(
          dim=384, input_resolution=(7, 7), num_heads=12, window_size=7, shift_size=0, mlp_ratio=2.0
          (select): DANE(
            (fc_spatial): Sequential(
              (0): LayerNorm((384,), eps=1e-05, elementwise_affine=True)
              (1): Linear(in_features=384, out_features=1, bias=False)
            )
            (avg_pool): AdaptiveAvgPool1d(output_size=1)
            (fc_channel): Sequential(
              (0): Linear(in_features=384, out_features=24, bias=False)
              (1): SiLU(inplace=True)
              (2): LayerNorm((24,), eps=1e-05, elementwise_affine=True)
              (3): Linear(in_features=24, out_features=384, bias=False)
            )
            (sigmoid): Sigmoid()
          )
          (norm1): LayerNorm((384,), eps=1e-05, elementwise_affine=True)
          (attn): WindowAttention(
            dim=384, window_size=(7, 7), num_heads=12
            (qkv): Linear(in_features=384, out_features=1152, bias=True)
            (attn_drop): Dropout(p=0.0, inplace=False)
            (proj): Linear(in_features=384, out_features=384, bias=True)
            (proj_drop): Dropout(p=0.0, inplace=False)
            (softmax): Softmax(dim=-1)
          )
          (drop_path): DropPath()
          (norm2): LayerNorm((384,), eps=1e-05, elementwise_affine=True)
          (mlp): Mlp(
            (fc1): Linear(in_features=384, out_features=768, bias=True)
            (act): GELU()
            (fc2): Linear(in_features=768, out_features=384, bias=True)
            (drop): Dropout(p=0.0, inplace=False)
          )
        )
        (1): TransformerBlock(
          dim=384, input_resolution=(7, 7), num_heads=12, window_size=7, shift_size=0, mlp_ratio=2.0
          (select): DANE(
            (fc_spatial): Sequential(
              (0): LayerNorm((384,), eps=1e-05, elementwise_affine=True)
              (1): Linear(in_features=384, out_features=1, bias=False)
            )
            (avg_pool): AdaptiveAvgPool1d(output_size=1)
            (fc_channel): Sequential(
              (0): Linear(in_features=384, out_features=24, bias=False)
              (1): SiLU(inplace=True)
              (2): LayerNorm((24,), eps=1e-05, elementwise_affine=True)
              (3): Linear(in_features=24, out_features=384, bias=False)
            )
            (sigmoid): Sigmoid()
          )
          (norm1): LayerNorm((384,), eps=1e-05, elementwise_affine=True)
          (attn): WindowAttention(
            dim=384, window_size=(7, 7), num_heads=12
            (qkv): Linear(in_features=384, out_features=1152, bias=True)
            (attn_drop): Dropout(p=0.0, inplace=False)
            (proj): Linear(in_features=384, out_features=384, bias=True)
            (proj_drop): Dropout(p=0.0, inplace=False)
            (softmax): Softmax(dim=-1)
          )
          (drop_path): DropPath()
          (norm2): LayerNorm((384,), eps=1e-05, elementwise_affine=True)
          (mlp): Mlp(
            (fc1): Linear(in_features=384, out_features=768, bias=True)
            (act): GELU()
            (fc2): Linear(in_features=768, out_features=384, bias=True)
            (drop): Dropout(p=0.0, inplace=False)
          )
        )
      )
      (downsample): PatchMerging(
        input_resolution=(7, 7), dim=384
        (reduction): Linear(in_features=384, out_features=768, bias=False)
        (norm): LayerNorm((384,), eps=1e-05, elementwise_affine=True)
      )
    )
    (3): BasicLayer(
      dim=768, input_resolution=(7, 7), depth=1
      (blocks): ModuleList(
        (0): TransformerBlock(
          dim=768, input_resolution=(7, 7), num_heads=24, window_size=7, shift_size=0, mlp_ratio=2.0
          (select): DANE(
            (fc_spatial): Sequential(
              (0): LayerNorm((768,), eps=1e-05, elementwise_affine=True)
              (1): Linear(in_features=768, out_features=1, bias=False)
            )
            (avg_pool): AdaptiveAvgPool1d(output_size=1)
            (fc_channel): Sequential(
              (0): Linear(in_features=768, out_features=48, bias=False)
              (1): SiLU(inplace=True)
              (2): LayerNorm((48,), eps=1e-05, elementwise_affine=True)
              (3): Linear(in_features=48, out_features=768, bias=False)
            )
            (sigmoid): Sigmoid()
          )
          (norm1): LayerNorm((768,), eps=1e-05, elementwise_affine=True)
          (attn): WindowAttention(
            dim=768, window_size=(7, 7), num_heads=24
            (qkv): Linear(in_features=768, out_features=2304, bias=True)
            (attn_drop): Dropout(p=0.0, inplace=False)
            (proj): Linear(in_features=768, out_features=768, bias=True)
            (proj_drop): Dropout(p=0.0, inplace=False)
            (softmax): Softmax(dim=-1)
          )
          (drop_path): DropPath()
          (norm2): LayerNorm((768,), eps=1e-05, elementwise_affine=True)
          (mlp): Mlp(
            (fc1): Linear(in_features=768, out_features=1536, bias=True)
            (act): GELU()
            (fc2): Linear(in_features=1536, out_features=768, bias=True)
            (drop): Dropout(p=0.0, inplace=False)
          )
        )
      )
    )
  )
  (convlayers): ModuleList(
    (0): ConvBlock(
      (conv1x1_1): Sequential(
        (0): Conv2d(96, 96, kernel_size=(1, 1), stride=(1, 1), bias=False)
        (1): BatchNorm2d(96, eps=1e-05, momentum=0.1, affine=True, track_running_stats=True)
        (2): SiLU(inplace=True)
        (3): Conv2d(96, 96, kernel_size=(3, 3), stride=(1, 1), padding=(1, 1), groups=96, bias=False)
        (4): BatchNorm2d(96, eps=1e-05, momentum=0.1, affine=True, track_running_stats=True)
        (5): SiLU(inplace=True)
        (6): Conv2d(96, 96, kernel_size=(3, 3), stride=(1, 1), padding=(1, 1), groups=96, bias=False)
        (7): BatchNorm2d(96, eps=1e-05, momentum=0.1, affine=True, track_running_stats=True)
        (8): SiLU(inplace=True)
      )
      (conv1): Sequential(
        (0): Conv2d(96, 96, kernel_size=(3, 3), stride=(2, 2), padding=(1, 1), groups=96, bias=False)
        (1): BatchNorm2d(96, eps=1e-05, momentum=0.1, affine=True, track_running_stats=True)
        (2): SiLU(inplace=True)
      )
      (conv1x1_2): Sequential(
        (0): Conv2d(96, 96, kernel_size=(1, 1), stride=(1, 1), bias=False)
        (1): BatchNorm2d(96, eps=1e-05, momentum=0.1, affine=True, track_running_stats=True)
        (2): SiLU(inplace=True)
      )
    )
    (1): ConvBlock(
      (conv1x1_1): Sequential(
        (0): Conv2d(192, 192, kernel_size=(1, 1), stride=(1, 1), bias=False)
        (1): BatchNorm2d(192, eps=1e-05, momentum=0.1, affine=True, track_running_stats=True)
        (2): SiLU(inplace=True)
        (3): Conv2d(192, 192, kernel_size=(3, 3), stride=(1, 1), padding=(1, 1), groups=192, bias=False)
        (4): BatchNorm2d(192, eps=1e-05, momentum=0.1, affine=True, track_running_stats=True)
        (5): SiLU(inplace=True)
        (6): Conv2d(192, 192, kernel_size=(3, 3), stride=(1, 1), padding=(1, 1), groups=192, bias=False)
        (7): BatchNorm2d(192, eps=1e-05, momentum=0.1, affine=True, track_running_stats=True)
        (8): SiLU(inplace=True)
      )
      (conv1): Sequential(
        (0): Conv2d(192, 192, kernel_size=(3, 3), stride=(2, 2), padding=(1, 1), groups=192, bias=False)
        (1): BatchNorm2d(192, eps=1e-05, momentum=0.1, affine=True, track_running_stats=True)
        (2): SiLU(inplace=True)
      )
      (conv1x1_2): Sequential(
        (0): Conv2d(192, 192, kernel_size=(1, 1), stride=(1, 1), bias=False)
        (1): BatchNorm2d(192, eps=1e-05, momentum=0.1, affine=True, track_running_stats=True)
        (2): SiLU(inplace=True)
      )
    )
    (2): ConvBlock(
      (conv1x1_1): Sequential(
        (0): Conv2d(384, 384, kernel_size=(1, 1), stride=(1, 1), bias=False)
        (1): BatchNorm2d(384, eps=1e-05, momentum=0.1, affine=True, track_running_stats=True)
        (2): SiLU(inplace=True)
        (3): Conv2d(384, 384, kernel_size=(3, 3), stride=(1, 1), padding=(1, 1), groups=384, bias=False)
        (4): BatchNorm2d(384, eps=1e-05, momentum=0.1, affine=True, track_running_stats=True)
        (5): SiLU(inplace=True)
        (6): Conv2d(384, 384, kernel_size=(3, 3), stride=(1, 1), padding=(1, 1), groups=384, bias=False)
        (7): BatchNorm2d(384, eps=1e-05, momentum=0.1, affine=True, track_running_stats=True)
        (8): SiLU(inplace=True)
      )
      (conv1): Sequential(
        (0): Conv2d(384, 384, kernel_size=(3, 3), stride=(2, 2), padding=(1, 1), groups=384, bias=False)
        (1): BatchNorm2d(384, eps=1e-05, momentum=0.1, affine=True, track_running_stats=True)
        (2): SiLU(inplace=True)
      )
      (conv1x1_2): Sequential(
        (0): Conv2d(384, 384, kernel_size=(1, 1), stride=(1, 1), bias=False)
        (1): BatchNorm2d(384, eps=1e-05, momentum=0.1, affine=True, track_running_stats=True)
        (2): SiLU(inplace=True)
      )
    )
    (3): ConvBlock(
      (conv1x1_1): Sequential(
        (0): Conv2d(768, 768, kernel_size=(1, 1), stride=(1, 1), bias=False)
        (1): BatchNorm2d(768, eps=1e-05, momentum=0.1, affine=True, track_running_stats=True)
        (2): SiLU(inplace=True)
        (3): Conv2d(768, 768, kernel_size=(3, 3), stride=(1, 1), padding=(1, 1), groups=768, bias=False)
        (4): BatchNorm2d(768, eps=1e-05, momentum=0.1, affine=True, track_running_stats=True)
        (5): SiLU(inplace=True)
        (6): Conv2d(768, 768, kernel_size=(3, 3), stride=(1, 1), padding=(1, 1), groups=768, bias=False)
        (7): BatchNorm2d(768, eps=1e-05, momentum=0.1, affine=True, track_running_stats=True)
        (8): SiLU(inplace=True)
      )
      (conv1): Sequential(
        (0): Conv2d(768, 768, kernel_size=(3, 3), stride=(1, 1), padding=(1, 1), groups=768, bias=False)
        (1): BatchNorm2d(768, eps=1e-05, momentum=0.1, affine=True, track_running_stats=True)
        (2): SiLU(inplace=True)
      )
      (conv1x1_2): Sequential(
        (0): Conv2d(768, 768, kernel_size=(1, 1), stride=(1, 1), bias=False)
        (1): BatchNorm2d(768, eps=1e-05, momentum=0.1, affine=True, track_running_stats=True)
        (2): SiLU(inplace=True)
      )
    )
  )
  (multiresolution_conv): ModuleList(
    (0): Sequential(
      (0): Conv2d(384, 384, kernel_size=(3, 3), stride=(1, 1), padding=(1, 1), groups=384, bias=False)
      (1): BatchNorm2d(384, eps=1e-05, momentum=0.1, affine=True, track_running_stats=True)
      (2): Conv2d(384, 96, kernel_size=(1, 1), stride=(1, 1), bias=False)
      (3): BatchNorm2d(96, eps=1e-05, momentum=0.1, affine=True, track_running_stats=True)
    )
    (1): Sequential(
      (0): Conv2d(768, 768, kernel_size=(3, 3), stride=(1, 1), padding=(1, 1), groups=768, bias=False)
      (1): BatchNorm2d(768, eps=1e-05, momentum=0.1, affine=True, track_running_stats=True)
      (2): Conv2d(768, 192, kernel_size=(1, 1), stride=(1, 1), bias=False)
      (3): BatchNorm2d(192, eps=1e-05, momentum=0.1, affine=True, track_running_stats=True)
    )
    (2): Sequential(
      (0): Conv2d(1536, 1536, kernel_size=(3, 3), stride=(1, 1), padding=(1, 1), groups=1536, bias=False)
      (1): BatchNorm2d(1536, eps=1e-05, momentum=0.1, affine=True, track_running_stats=True)
      (2): Conv2d(1536, 384, kernel_size=(1, 1), stride=(1, 1), bias=False)
      (3): BatchNorm2d(384, eps=1e-05, momentum=0.1, affine=True, track_running_stats=True)
    )
  )
  (norm): LayerNorm((768,), eps=1e-05, elementwise_affine=True)
  (avgpool): AdaptiveAvgPool1d(output_size=1)
  (maxpool): MaxPool2d(kernel_size=3, stride=2, padding=1, dilation=1, ceil_mode=False)
  (head): Linear(in_features=768, out_features=1000, bias=True)
)
[2022-03-23 19:21:24 small] (main.py 94): INFO number of params: 11225485
[2022-03-23 19:21:24 small] (main.py 97): INFO number of GFLOPs: 0.814258944
[2022-03-23 19:21:24 small] (main.py 121): INFO no checkpoint found in output/small/default, ignoring auto resume
[2022-03-23 19:21:24 small] (main.py 134): INFO Start training
[2022-03-23 19:21:39 small] (main.py 226): INFO Train: [0/300][0/1251]	eta 5:14:03 lr 0.000001	time 15.0631 (15.0631)	loss 6.9142 (6.9142)	grad_norm 0.9385 (0.9385)	mem 9017MB
…
