…
TEST:
  CROP: true
THROUGHPUT_MODE: false
TRAIN:
  ACCUMULATION_STEPS: 0
  AUTO_RESUME: true
  BASE_LR: 0.0005
  CLIP_GRAD: 5.0
  EPOCHS: 300
  LR_SCHEDULER:
    DECAY_EPOCHS: 30
    DECAY_RATE: 0.1
    NAME: cosine
  MIN_LR: 5.0e-06
  OPTIMIZER:
    BETAS:
    - 0.9
    - 0.999
    EPS: 1.0e-08
    MOMENTUM: 0.9
    NAME: adamw
  START_EPOCH: 0
  USE_CHECKPOINT: false
  WARMUP_EPOCHS: 20
  WARMUP_LR: 5.0e-07
  WEIGHT_DECAY: 0.05

[2022-04-04 23:46:02 large] (main.py 80): INFO Creating model:DFvT/large
[2022-04-04 23:46:03 large] (main.py 85): INFO DFvT(
  (patch_embed): PatchEmbed(
    (proj1): Conv2d(3, 64, kernel_size=(3, 3), stride=(2, 2), padding=(1, 1))
    (proj2): Conv2d(64, 128, kernel_size=(3, 3), stride=(2, 2), padding=(1, 1))
    (silu): SiLU(inplace=True)
    (norm): BatchNorm2d(128, eps=1e-05, momentum=0.1, affine=True, track_running_stats=True)
    (norm1): BatchNorm2d(64, eps=1e-05, momentum=0.1, affine=True, track_running_stats=True)
  )
  (pos_drop): Dropout(p=0.0, inplace=False)
  (layers): ModuleList(
    (0): BasicLayer(
      dim=128, input_resolution=(28, 28), depth=2
      (blocks): ModuleList(
        (0): TransformerBlock(
          dim=128, input_resolution=(28, 28), num_heads=4, window_size=7, shift_size=0, mlp_ratio=2.0
          (select): DANE(
            (fc_spatial): Sequential(
              (0): LayerNorm((128,), eps=1e-05, elementwise_affine=True)
              (1): Linear(in_features=128, out_features=1, bias=False)
            )
            (avg_pool): AdaptiveAvgPool1d(output_size=1)
            (fc_channel): Sequential(
              (0): Linear(in_features=128, out_features=8, bias=False)
              (1): SiLU(inplace=True)
              (2): LayerNorm((8,), eps=1e-05, elementwise_affine=True)
              (3): Linear(in_features=8, out_features=128, bias=False)
            )
            (sigmoid): Sigmoid()
          )
          (norm1): LayerNorm((128,), eps=1e-05, elementwise_affine=True)
          (attn): WindowAttention(
            dim=128, window_size=(7, 7), num_heads=4
            (qkv): Linear(in_features=128, out_features=384, bias=True)
            (attn_drop): Dropout(p=0.0, inplace=False)
            (proj): Linear(in_features=128, out_features=128, bias=True)
            (proj_drop): Dropout(p=0.0, inplace=False)
            (softmax): Softmax(dim=-1)
          )
          (drop_path): Identity()
          (norm2): LayerNorm((128,), eps=1e-05, elementwise_affine=True)
          (mlp): Mlp(
            (fc1): Linear(in_features=128, out_features=256, bias=True)
            (act): GELU()
            (fc2): Linear(in_features=256, out_features=128, bias=True)
            (drop): Dropout(p=0.0, inplace=False)
          )
        )
        (1): TransformerBlock(
          dim=128, input_resolution=(28, 28), num_heads=4, window_size=7, shift_size=3, mlp_ratio=2.0
          (select): DANE(
            (fc_spatial): Sequential(
              (0): LayerNorm((128,), eps=1e-05, elementwise_affine=True)
              (1): Linear(in_features=128, out_features=1, bias=False)
            )
            (avg_pool): AdaptiveAvgPool1d(output_size=1)
            (fc_channel): Sequential(
              (0): Linear(in_features=128, out_features=8, bias=False)
              (1): SiLU(inplace=True)
              (2): LayerNorm((8,), eps=1e-05, elementwise_affine=True)
              (3): Linear(in_features=8, out_features=128, bias=False)
            )
            (sigmoid): Sigmoid()
          )
          (norm1): LayerNorm((128,), eps=1e-05, elementwise_affine=True)
          (attn): WindowAttention(
            dim=128, window_size=(7, 7), num_heads=4
            (qkv): Linear(in_features=128, out_features=384, bias=True)
            (attn_drop): Dropout(p=0.0, inplace=False)
            (proj): Linear(in_features=128, out_features=128, bias=True)
            (proj_drop): Dropout(p=0.0, inplace=False)
            (softmax): Softmax(dim=-1)
          )
          (drop_path): DropPath()
          (norm2): LayerNorm((128,), eps=1e-05, elementwise_affine=True)
          (mlp): Mlp(
            (fc1): Linear(in_features=128, out_features=256, bias=True)
            (act): GELU()
            (fc2): Linear(in_features=256, out_features=128, bias=True)
            (drop): Dropout(p=0.0, inplace=False)
          )
        )
      )
      (downsample): PatchMerging(
        input_resolution=(28, 28), dim=128
        (reduction): Linear(in_features=128, out_features=256, bias=False)
        (norm): LayerNorm((128,), eps=1e-05, elementwise_affine=True)
      )
    )
    (1): BasicLayer(
      dim=256, input_resolution=(14, 14), depth=2
      (blocks): ModuleList(
        (0): TransformerBlock(
          dim=256, input_resolution=(14, 14), num_heads=8, window_size=7, shift_size=0, mlp_ratio=2.0
          (select): DANE(
            (fc_spatial): Sequential(
              (0): LayerNorm((256,), eps=1e-05, elementwise_affine=True)
              (1): Linear(in_features=256, out_features=1, bias=False)
            )
            (avg_pool): AdaptiveAvgPool1d(output_size=1)
            (fc_channel): Sequential(
              (0): Linear(in_features=256, out_features=16, bias=False)
              (1): SiLU(inplace=True)
              (2): LayerNorm((16,), eps=1e-05, elementwise_affine=True)
              (3): Linear(in_features=16, out_features=256, bias=False)
            )
            (sigmoid): Sigmoid()
          )
          (norm1): LayerNorm((256,), eps=1e-05, elementwise_affine=True)
          (attn): WindowAttention(
            dim=256, window_size=(7, 7), num_heads=8
            (qkv): Linear(in_features=256, out_features=768, bias=True)
            (attn_drop): Dropout(p=0.0, inplace=False)
            (proj): Linear(in_features=256, out_features=256, bias=True)
            (proj_drop): Dropout(p=0.0, inplace=False)
            (softmax): Softmax(dim=-1)
          )
          (drop_path): DropPath()
          (norm2): LayerNorm((256,), eps=1e-05, elementwise_affine=True)
          (mlp): Mlp(
            (fc1): Linear(in_features=256, out_features=512, bias=True)
            (act): GELU()
            (fc2): Linear(in_features=512, out_features=256, bias=True)
            (drop): Dropout(p=0.0, inplace=False)
          )
        )
        (1): TransformerBlock(
          dim=256, input_resolution=(14, 14), num_heads=8, window_size=7, shift_size=3, mlp_ratio=2.0
          (select): DANE(
            (fc_spatial): Sequential(
              (0): LayerNorm((256,), eps=1e-05, elementwise_affine=True)
              (1): Linear(in_features=256, out_features=1, bias=False)
            )
            (avg_pool): AdaptiveAvgPool1d(output_size=1)
            (fc_channel): Sequential(
              (0): Linear(in_features=256, out_features=16, bias=False)
              (1): SiLU(inplace=True)
              (2): LayerNorm((16,), eps=1e-05, elementwise_affine=True)
              (3): Linear(in_features=16, out_features=256, bias=False)
            )
            (sigmoid): Sigmoid()
          )
          (norm1): LayerNorm((256,), eps=1e-05, elementwise_affine=True)
          (attn): WindowAttention(
            dim=256, window_size=(7, 7), num_heads=8
            (qkv): Linear(in_features=256, out_features=768, bias=True)
            (attn_drop): Dropout(p=0.0, inplace=False)
            (proj): Linear(in_features=256, out_features=256, bias=True)
            (proj_drop): Dropout(p=0.0, inplace=False)
            (softmax): Softmax(dim=-1)
          )
          (drop_path): DropPath()
          (norm2): LayerNorm((256,), eps=1e-05, elementwise_affine=True)
          (mlp): Mlp(
            (fc1): Linear(in_features=256, out_features=512, bias=True)
            (act): GELU()
            (fc2): Linear(in_features=512, out_features=256, bias=True)
            (drop): Dropout(p=0.0, inplace=False)
          )
        )
      )
      (downsample): PatchMerging(
        input_resolution=(14, 14), dim=256
        (reduction): Linear(in_features=256, out_features=512, bias=False)
        (norm): LayerNorm((256,), eps=1e-05, elementwise_affine=True)
      )
    )
    (2): BasicLayer(
      dim=512, input_resolution=(7, 7), depth=6
      (blocks): ModuleList(
        (0): TransformerBlock(
          dim=512, input_resolution=(7, 7), num_heads=16, window_size=7, shift_size=0, mlp_ratio=2.0
          (select): DANE(
            (fc_spatial): Sequential(
              (0): LayerNorm((512,), eps=1e-05, elementwise_affine=True)
              (1): Linear(in_features=512, out_features=1, bias=False)
            )
            (avg_pool): AdaptiveAvgPool1d(output_size=1)
            (fc_channel): Sequential(
              (0): Linear(in_features=512, out_features=32, bias=False)
              (1): SiLU(inplace=True)
              (2): LayerNorm((32,), eps=1e-05, elementwise_affine=True)
              (3): Linear(in_features=32, out_features=512, bias=False)
            )
            (sigmoid): Sigmoid()
          )
          (norm1): LayerNorm((512,), eps=1e-05, elementwise_affine=True)
          (attn): WindowAttention(
            dim=512, window_size=(7, 7), num_heads=16
            (qkv): Linear(in_features=512, out_features=1536, bias=True)
            (attn_drop): Dropout(p=0.0, inplace=False)
            (proj): Linear(in_features=512, out_features=512, bias=True)
            (proj_drop): Dropout(p=0.0, inplace=False)
            (softmax): Softmax(dim=-1)
          )
          (drop_path): DropPath()
          (norm2): LayerNorm((512,), eps=1e-05, elementwise_affine=True)
          (mlp): Mlp(
            (fc1): Linear(in_features=512, out_features=1024, bias=True)
            (act): GELU()
            (fc2): Linear(in_features=1024, out_features=512, bias=True)
            (drop): Dropout(p=0.0, inplace=False)
          )
        )
        (1): TransformerBlock(
          dim=512, input_resolution=(7, 7), num_heads=16, window_size=7, shift_size=0, mlp_ratio=2.0
          (select): DANE(
            (fc_spatial): Sequential(
              (0): LayerNorm((512,), eps=1e-05, elementwise_affine=True)
              (1): Linear(in_features=512, out_features=1, bias=False)
            )
            (avg_pool): AdaptiveAvgPool1d(output_size=1)
            (fc_channel): Sequential(
              (0): Linear(in_features=512, out_features=32, bias=False)
              (1): SiLU(inplace=True)
              (2): LayerNorm((32,), eps=1e-05, elementwise_affine=True)
              (3): Linear(in_features=32, out_features=512, bias=False)
            )
            (sigmoid): Sigmoid()
          )
          (norm1): LayerNorm((512,), eps=1e-05, elementwise_affine=True)
          (attn): WindowAttention(
            dim=512, window_size=(7, 7), num_heads=16
            (qkv): Linear(in_features=512, out_features=1536, bias=True)
            (attn_drop): Dropout(p=0.0, inplace=False)
            (proj): Linear(in_features=512, out_features=512, bias=True)
            (proj_drop): Dropout(p=0.0, inplace=False)
            (softmax): Softmax(dim=-1)
          )
          (drop_path): DropPath()
          (norm2): LayerNorm((512,), eps=1e-05, elementwise_affine=True)
          (mlp): Mlp(
            (fc1): Linear(in_features=512, out_features=1024, bias=True)
            (act): GELU()
            (fc2): Linear(in_features=1024, out_features=512, bias=True)
            (drop): Dropout(p=0.0, inplace=False)
          )
        )
        (2): TransformerBlock(
          dim=512, input_resolution=(7, 7), num_heads=16, window_size=7, shift_size=0, mlp_ratio=2.0
          (select): DANE(
            (fc_spatial): Sequential(
              (0): LayerNorm((512,), eps=1e-05, elementwise_affine=True)
              (1): Linear(in_features=512, out_features=1, bias=False)
            )
            (avg_pool): AdaptiveAvgPool1d(output_size=1)
            (fc_channel): Sequential(
              (0): Linear(in_features=512, out_features=32, bias=False)
              (1): SiLU(inplace=True)
              (2): LayerNorm((32,), eps=1e-05, elementwise_affine=True)
              (3): Linear(in_features=32, out_features=512, bias=False)
            )
            (sigmoid): Sigmoid()
          )
          (norm1): LayerNorm((512,), eps=1e-05, elementwise_affine=True)
          (attn): WindowAttention(
            dim=512, window_size=(7, 7), num_heads=16
            (qkv): Linear(in_features=512, out_features=1536, bias=True)
            (attn_drop): Dropout(p=0.0, inplace=False)
            (proj): Linear(in_features=512, out_features=512, bias=True)
            (proj_drop): Dropout(p=0.0, inplace=False)
            (softmax): Softmax(dim=-1)
          )
          (drop_path): DropPath()
          (norm2): LayerNorm((512,), eps=1e-05, elementwise_affine=True)
          (mlp): Mlp(
            (fc1): Linear(in_features=512, out_features=1024, bias=True)
            (act): GELU()
            (fc2): Linear(in_features=1024, out_features=512, bias=True)
            (drop): Dropout(p=0.0, inplace=False)
          )
        )
        (3): TransformerBlock(
          dim=512, input_resolution=(7, 7), num_heads=16, window_size=7, shift_size=0, mlp_ratio=2.0
          (select): DANE(
            (fc_spatial): Sequential(
              (0): LayerNorm((512,), eps=1e-05, elementwise_affine=True)
              (1): Linear(in_features=512, out_features=1, bias=False)
            )
            (avg_pool): AdaptiveAvgPool1d(output_size=1)
            (fc_channel): Sequential(
              (0): Linear(in_features=512, out_features=32, bias=False)
              (1): SiLU(inplace=True)
              (2): LayerNorm((32,), eps=1e-05, elementwise_affine=True)
              (3): Linear(in_features=32, out_features=512, bias=False)
            )
            (sigmoid): Sigmoid()
          )
          (norm1): LayerNorm((512,), eps=1e-05, elementwise_affine=True)
          (attn): WindowAttention(
            dim=512, window_size=(7, 7), num_heads=16
            (qkv): Linear(in_features=512, out_features=1536, bias=True)
            (attn_drop): Dropout(p=0.0, inplace=False)
            (proj): Linear(in_features=512, out_features=512, bias=True)
            (proj_drop): Dropout(p=0.0, inplace=False)
            (softmax): Softmax(dim=-1)
          )
          (drop_path): DropPath()
          (norm2): LayerNorm((512,), eps=1e-05, elementwise_affine=True)
          (mlp): Mlp(
            (fc1): Linear(in_features=512, out_features=1024, bias=True)
            (act): GELU()
            (fc2): Linear(in_features=1024, out_features=512, bias=True)
            (drop): Dropout(p=0.0, inplace=False)
          )
        )
        (4): TransformerBlock(
          dim=512, input_resolution=(7, 7), num_heads=16, window_size=7, shift_size=0, mlp_ratio=2.0
          (select): DANE(
            (fc_spatial): Sequential(
              (0): LayerNorm((512,), eps=1e-05, elementwise_affine=True)
              (1): Linear(in_features=512, out_features=1, bias=False)
            )
            (avg_pool): AdaptiveAvgPool1d(output_size=1)
            (fc_channel): Sequential(
              (0): Linear(in_features=512, out_features=32, bias=False)
              (1): SiLU(inplace=True)
              (2): LayerNorm((32,), eps=1e-05, elementwise_affine=True)
              (3): Linear(in_features=32, out_features=512, bias=False)
            )
            (sigmoid): Sigmoid()
          )
          (norm1): LayerNorm((512,), eps=1e-05, elementwise_affine=True)
          (attn): WindowAttention(
            dim=512, window_size=(7, 7), num_heads=16
            (qkv): Linear(in_features=512, out_features=1536, bias=True)
            (attn_drop): Dropout(p=0.0, inplace=False)
            (proj): Linear(in_features=512, out_features=512, bias=True)
            (proj_drop): Dropout(p=0.0, inplace=False)
            (softmax): Softmax(dim=-1)
          )
          (drop_path): DropPath()
          (norm2): LayerNorm((512,), eps=1e-05, elementwise_affine=True)
          (mlp): Mlp(
            (fc1): Linear(in_features=512, out_features=1024, bias=True)
            (act): GELU()
            (fc2): Linear(in_features=1024, out_features=512, bias=True)
            (drop): Dropout(p=0.0, inplace=False)
          )
        )
        (5): TransformerBlock(
          dim=512, input_resolution=(7, 7), num_heads=16, window_size=7, shift_size=0, mlp_ratio=2.0
          (select): DANE(
            (fc_spatial): Sequential(
              (0): LayerNorm((512,), eps=1e-05, elementwise_affine=True)
              (1): Linear(in_features=512, out_features=1, bias=False)
            )
            (avg_pool): AdaptiveAvgPool1d(output_size=1)
            (fc_channel): Sequential(
              (0): Linear(in_features=512, out_features=32, bias=False)
              (1): SiLU(inplace=True)
              (2): LayerNorm((32,), eps=1e-05, elementwise_affine=True)
              (3): Linear(in_features=32, out_features=512, bias=False)
            )
            (sigmoid): Sigmoid()
          )
          (norm1): LayerNorm((512,), eps=1e-05, elementwise_affine=True)
          (attn): WindowAttention(
            dim=512, window_size=(7, 7), num_heads=16
            (qkv): Linear(in_features=512, out_features=1536, bias=True)
            (attn_drop): Dropout(p=0.0, inplace=False)
            (proj): Linear(in_features=512, out_features=512, bias=True)
            (proj_drop): Dropout(p=0.0, inplace=False)
            (softmax): Softmax(dim=-1)
          )
          (drop_path): DropPath()
          (norm2): LayerNorm((512,), eps=1e-05, elementwise_affine=True)
          (mlp): Mlp(
            (fc1): Linear(in_features=512, out_features=1024, bias=True)
            (act): GELU()
            (fc2): Linear(in_features=1024, out_features=512, bias=True)
            (drop): Dropout(p=0.0, inplace=False)
          )
        )
      )
      (downsample): PatchMerging(
        input_resolution=(7, 7), dim=512
        (reduction): Linear(in_features=512, out_features=1024, bias=False)
        (norm): LayerNorm((512,), eps=1e-05, elementwise_affine=True)
      )
    )
    (3): BasicLayer(
      dim=1024, input_resolution=(7, 7), depth=2
      (blocks): ModuleList(
        (0): TransformerBlock(
          dim=1024, input_resolution=(7, 7), num_heads=32, window_size=7, shift_size=0, mlp_ratio=2.0
          (select): DANE(
            (fc_spatial): Sequential(
              (0): LayerNorm((1024,), eps=1e-05, elementwise_affine=True)
              (1): Linear(in_features=1024, out_features=1, bias=False)
            )
            (avg_pool): AdaptiveAvgPool1d(output_size=1)
            (fc_channel): Sequential(
              (0): Linear(in_features=1024, out_features=64, bias=False)
              (1): SiLU(inplace=True)
              (2): LayerNorm((64,), eps=1e-05, elementwise_affine=True)
              (3): Linear(in_features=64, out_features=1024, bias=False)
            )
            (sigmoid): Sigmoid()
          )
          (norm1): LayerNorm((1024,), eps=1e-05, elementwise_affine=True)
          (attn): WindowAttention(
            dim=1024, window_size=(7, 7), num_heads=32
            (qkv): Linear(in_features=1024, out_features=3072, bias=True)
            (attn_drop): Dropout(p=0.0, inplace=False)
            (proj): Linear(in_features=1024, out_features=1024, bias=True)
            (proj_drop): Dropout(p=0.0, inplace=False)
            (softmax): Softmax(dim=-1)
          )
          (drop_path): DropPath()
          (norm2): LayerNorm((1024,), eps=1e-05, elementwise_affine=True)
          (mlp): Mlp(
            (fc1): Linear(in_features=1024, out_features=2048, bias=True)
            (act): GELU()
            (fc2): Linear(in_features=2048, out_features=1024, bias=True)
            (drop): Dropout(p=0.0, inplace=False)
          )
        )
        (1): TransformerBlock(
          dim=1024, input_resolution=(7, 7), num_heads=32, window_size=7, shift_size=0, mlp_ratio=2.0
          (select): DANE(
            (fc_spatial): Sequential(
              (0): LayerNorm((1024,), eps=1e-05, elementwise_affine=True)
              (1): Linear(in_features=1024, out_features=1, bias=False)
            )
            (avg_pool): AdaptiveAvgPool1d(output_size=1)
            (fc_channel): Sequential(
              (0): Linear(in_features=1024, out_features=64, bias=False)
              (1): SiLU(inplace=True)
              (2): LayerNorm((64,), eps=1e-05, elementwise_affine=True)
              (3): Linear(in_features=64, out_features=1024, bias=False)
            )
            (sigmoid): Sigmoid()
          )
          (norm1): LayerNorm((1024,), eps=1e-05, elementwise_affine=True)
          (attn): WindowAttention(
            dim=1024, window_size=(7, 7), num_heads=32
            (qkv): Linear(in_features=1024, out_features=3072, bias=True)
            (attn_drop): Dropout(p=0.0, inplace=False)
            (proj): Linear(in_features=1024, out_features=1024, bias=True)
            (proj_drop): Dropout(p=0.0, inplace=False)
            (softmax): Softmax(dim=-1)
          )
          (drop_path): DropPath()
          (norm2): LayerNorm((1024,), eps=1e-05, elementwise_affine=True)
          (mlp): Mlp(
            (fc1): Linear(in_features=1024, out_features=2048, bias=True)
            (act): GELU()
            (fc2): Linear(in_features=2048, out_features=1024, bias=True)
            (drop): Dropout(p=0.0, inplace=False)
          )
        )
      )
    )
  )
  (convlayers): ModuleList(
    (0): ConvBlock(
      (conv1x1_1): Sequential(
        (0): Conv2d(128, 128, kernel_size=(1, 1), stride=(1, 1), bias=False)
        (1): BatchNorm2d(128, eps=1e-05, momentum=0.1, affine=True, track_running_stats=True)
        (2): SiLU(inplace=True)
        (3): Conv2d(128, 128, kernel_size=(3, 3), stride=(1, 1), padding=(1, 1), groups=128, bias=False)
        (4): BatchNorm2d(128, eps=1e-05, momentum=0.1, affine=True, track_running_stats=True)
        (5): SiLU(inplace=True)
        (6): Conv2d(128, 128, kernel_size=(3, 3), stride=(1, 1), padding=(1, 1), groups=128, bias=False)
        (7): BatchNorm2d(128, eps=1e-05, momentum=0.1, affine=True, track_running_stats=True)
        (8): SiLU(inplace=True)
      )
      (conv1): Sequential(
        (0): Conv2d(128, 128, kernel_size=(3, 3), stride=(2, 2), padding=(1, 1), groups=128, bias=False)
        (1): BatchNorm2d(128, eps=1e-05, momentum=0.1, affine=True, track_running_stats=True)
        (2): SiLU(inplace=True)
      )
      (conv1x1_2): Sequential(
        (0): Conv2d(128, 128, kernel_size=(1, 1), stride=(1, 1), bias=False)
        (1): BatchNorm2d(128, eps=1e-05, momentum=0.1, affine=True, track_running_stats=True)
        (2): SiLU(inplace=True)
      )
    )
    (1): ConvBlock(
      (conv1x1_1): Sequential(
        (0): Conv2d(256, 256, kernel_size=(1, 1), stride=(1, 1), bias=False)
        (1): BatchNorm2d(256, eps=1e-05, momentum=0.1, affine=True, track_running_stats=True)
        (2): SiLU(inplace=True)
        (3): Conv2d(256, 256, kernel_size=(3, 3), stride=(1, 1), padding=(1, 1), groups=256, bias=False)
        (4): BatchNorm2d(256, eps=1e-05, momentum=0.1, affine=True, track_running_stats=True)
        (5): SiLU(inplace=True)
        (6): Conv2d(256, 256, kernel_size=(3, 3), stride=(1, 1), padding=(1, 1), groups=256, bias=False)
        (7): BatchNorm2d(256, eps=1e-05, momentum=0.1, affine=True, track_running_stats=True)
        (8): SiLU(inplace=True)
      )
      (conv1): Sequential(
        (0): Conv2d(256, 256, kernel_size=(3, 3), stride=(2, 2), padding=(1, 1), groups=256, bias=False)
        (1): BatchNorm2d(256, eps=1e-05, momentum=0.1, affine=True, track_running_stats=True)
        (2): SiLU(inplace=True)
      )
      (conv1x1_2): Sequential(
        (0): Conv2d(256, 256, kernel_size=(1, 1), stride=(1, 1), bias=False)
        (1): BatchNorm2d(256, eps=1e-05, momentum=0.1, affine=True, track_running_stats=True)
        (2): SiLU(inplace=True)
      )
    )
    (2): ConvBlock(
      (conv1x1_1): Sequential(
        (0): Conv2d(512, 512, kernel_size=(1, 1), stride=(1, 1), bias=False)
        (1): BatchNorm2d(512, eps=1e-05, momentum=0.1, affine=True, track_running_stats=True)
        (2): SiLU(inplace=True)
        (3): Conv2d(512, 512, kernel_size=(3, 3), stride=(1, 1), padding=(1, 1), groups=512, bias=False)
        (4): BatchNorm2d(512, eps=1e-05, momentum=0.1, affine=True, track_running_stats=True)
        (5): SiLU(inplace=True)
        (6): Conv2d(512, 512, kernel_size=(3, 3), stride=(1, 1), padding=(1, 1), groups=512, bias=False)
        (7): BatchNorm2d(512, eps=1e-05, momentum=0.1, affine=True, track_running_stats=True)
        (8): SiLU(inplace=True)
      )
      (conv1): Sequential(
        (0): Conv2d(512, 512, kernel_size=(3, 3), stride=(2, 2), padding=(1, 1), groups=512, bias=False)
        (1): BatchNorm2d(512, eps=1e-05, momentum=0.1, affine=True, track_running_stats=True)
        (2): SiLU(inplace=True)
      )
      (conv1x1_2): Sequential(
        (0): Conv2d(512, 512, kernel_size=(1, 1), stride=(1, 1), bias=False)
        (1): BatchNorm2d(512, eps=1e-05, momentum=0.1, affine=True, track_running_stats=True)
        (2): SiLU(inplace=True)
      )
    )
    (3): ConvBlock(
      (conv1x1_1): Sequential(
        (0): Conv2d(1024, 1024, kernel_size=(1, 1), stride=(1, 1), bias=False)
        (1): BatchNorm2d(1024, eps=1e-05, momentum=0.1, affine=True, track_running_stats=True)
        (2): SiLU(inplace=True)
        (3): Conv2d(1024, 1024, kernel_size=(3, 3), stride=(1, 1), padding=(1, 1), groups=1024, bias=False)
        (4): BatchNorm2d(1024, eps=1e-05, momentum=0.1, affine=True, track_running_stats=True)
        (5): SiLU(inplace=True)
        (6): Conv2d(1024, 1024, kernel_size=(3, 3), stride=(1, 1), padding=(1, 1), groups=1024, bias=False)
        (7): BatchNorm2d(1024, eps=1e-05, momentum=0.1, affine=True, track_running_stats=True)
        (8): SiLU(inplace=True)
      )
      (conv1): Sequential(
        (0): Conv2d(1024, 1024, kernel_size=(3, 3), stride=(1, 1), padding=(1, 1), groups=1024, bias=False)
        (1): BatchNorm2d(1024, eps=1e-05, momentum=0.1, affine=True, track_running_stats=True)
        (2): SiLU(inplace=True)
      )
      (conv1x1_2): Sequential(
        (0): Conv2d(1024, 1024, kernel_size=(1, 1), stride=(1, 1), bias=False)
        (1): BatchNorm2d(1024, eps=1e-05, momentum=0.1, affine=True, track_running_stats=True)
        (2): SiLU(inplace=True)
      )
    )
  )
  (multiresolution_conv): ModuleList(
    (0): Sequential(
      (0): Conv2d(512, 512, kernel_size=(3, 3), stride=(1, 1), padding=(1, 1), groups=512, bias=False)
      (1): BatchNorm2d(512, eps=1e-05, momentum=0.1, affine=True, track_running_stats=True)
      (2): Conv2d(512, 128, kernel_size=(1, 1), stride=(1, 1), bias=False)
      (3): BatchNorm2d(128, eps=1e-05, momentum=0.1, affine=True, track_running_stats=True)
    )
    (1): Sequential(
      (0): Conv2d(1024, 1024, kernel_size=(3, 3), stride=(1, 1), padding=(1, 1), groups=1024, bias=False)
      (1): BatchNorm2d(1024, eps=1e-05, momentum=0.1, affine=True, track_running_stats=True)
      (2): Conv2d(1024, 256, kernel_size=(1, 1), stride=(1, 1), bias=False)
      (3): BatchNorm2d(256, eps=1e-05, momentum=0.1, affine=True, track_running_stats=True)
    )
    (2): Sequential(
      (0): Conv2d(2048, 2048, kernel_size=(3, 3), stride=(1, 1), padding=(1, 1), groups=2048, bias=False)
      (1): BatchNorm2d(2048, eps=1e-05, momentum=0.1, affine=True, track_running_stats=True)
      (2): Conv2d(2048, 512, kernel_size=(1, 1), stride=(1, 1), bias=False)
      (3): BatchNorm2d(512, eps=1e-05, momentum=0.1, affine=True, track_running_stats=True)
    )
  )
  (norm): LayerNorm((1024,), eps=1e-05, elementwise_affine=True)
  (avgpool): AdaptiveAvgPool1d(output_size=1)
  (maxpool): MaxPool2d(kernel_size=3, stride=2, padding=1, dilation=1, ceil_mode=False)
  (head): Linear(in_features=1024, out_features=1000, bias=True)
)
[2022-04-04 23:46:03 large] (main.py 94): INFO number of params: 37331136
[2022-04-04 23:46:03 large] (main.py 97): INFO number of GFLOPs: 2.503752704
[2022-04-04 23:46:03 large] (main.py 121): INFO no checkpoint found in output/large/default, ignoring auto resume
[2022-04-04 23:46:03 large] (main.py 134): INFO Start training
[2022-04-04 23:46:14 large] (main.py 226): INFO Train: [0/300][0/2502]	eta 7:59:37 lr 0.000000	time 11.5016 (11.5016)	loss 6.9139 (6.9139)	grad_norm 1.5922 (1.5922)	mem 8476MB
…
